mnist_convnet.pth (torch_old, 53353 bytes, 12 tensors)

conv1.weight f4 [8, 1, 5, 5]
0	0x3de0009c	0.10937616
1	0x3dc14c2f	0.09438359
2	0xbe9a6471	-0.30154756
3	0xbea43465	-0.32071224
4	0xbdab6318	-0.0836851
5	0x3dc37094	0.09542957
6	0xbd748bf3	-0.05970378
7	0xbe36d73b	-0.17855541
8	0x3efcd5be	0.49381822
9	0x3ef6feaf	0.48241183
10	0x3c8fe9b7	0.017567499
11	0x3ea00861	0.31256393
12	0x3ef40347	0.4765875
13	0x3ee42794	0.44561446
14	0x3f189490	0.5960169
15	0x3d8ea919	0.069658466
16	0x3ebddd25	0.37082782
17	0x3e13e7c9	0.14443888
18	0xbe1d8943	-0.15384392
19	0x3c30c456	0.010788998
20	0x3d27df5b	0.040984493
21	0xbe5e9bc6	-0.2173911
22	0xbf14576f	-0.57945913
23	0xbf1d9a59	-0.6156364
24	0xbf3a6c37	-0.7282137
25	0x3d8b1d14	0.067926556
26	0x3ed7619b	0.42066655
27	0x3ecab537	0.3959138
28	0x3eb69014	0.35656798
29	0xbdb4d258	-0.088291824
30	0xbe6b3b0b	-0.22971742
31	0x3dd01e00	0.10161972
32	0x3ee709ac	0.45124567
33	0x3ecce283	0.40016565
34	0x3e037e79	0.12841214
35	0xbe9569c4	-0.29182255
36	0x3e29db55	0.16587575
37	0x3e8fc46f	0.28079554
38	0x3e52ca87	0.2058507
39	0x3c3e90d2	0.011631208
40	0xbe94ba48	-0.2904837
41	0xbb191725	-0.0023359742
42	0x3e5ba85e	0.21450946
43	0x3e80b85a	0.2514065
44	0x3cc73d3a	0.024321187
45	0xbdb7f8f7	-0.08983033
46	0xbe141247	-0.14460097
47	0x3e5afeda	0.2138628
48	0x3d9a702f	0.075409286
49	0x3e9f30a2	0.3109179
50	0xbcef7dd2	-0.0292348
51	0xbd0efbe1	-0.03490818
52	0x3e0694f3	0.13142757
53	0x3e43b261	0.19111015
54	0x3d05c95d	0.032662738
55	0x3e053dbc	0.13011831
56	0x3eaf75b0	0.34269476
57	0x3ec6a535	0.38797918
58	0x3e9b6a9b	0.3035477
59	0x3e448e1b	0.19194834
60	0x3ea631e0	0.32459927
61	0x3f4cfd67	0.8007416
62	0x3f2539db	0.64541405
63	0x3e377219	0.17914619
64	0xbe052318	-0.13001668
65	0x3ee7c573	0.4526783
66	0x3f221317	0.6331038
67	0xbcfca4ad	-0.030840242
68	0xbe9bbd08	-0.30417657
69	0xbec84f8d	-0.39123192
70	0x3dd5f305	0.10446743
71	0x3e7a122e	0.24420998
72	0xbe1e6e30	-0.1547172
73	0xbd5327d4	-0.051551655
74	0xbe32d835	-0.17465289
75	0x3e76d631	0.24105145
76	0xbe745e18	-0.23864019
77	0xbec8af74	-0.3919636
78	0xbe2ba405	-0.16761787
79	0xbe02dd0b	-0.12779634
80	0x3dcc6212	0.09979643
81	0xbe4dc3e9	-0.20094265
82	0xbe1feaa0	-0.15616846
83	0xbe45e782	-0.19326594
84	0xbcb73fbb	-0.022369256
85	0x3dea04e5	0.11426715
86	0x3e806dc5	0.25083748
87	0x3e9be9ef	0.30451915
88	0x3ea6421b	0.3247231
89	0x3f0cb266	0.54959714
90	0x3e970763	0.29497823
91	0x3ee4648c	0.4460796
92	0x3f0fc20a	0.56155455
93	0x3f11f6e3	0.57017344
94	0x3e8f9c12	0.2804876
95	0x3e0fb6fd	0.14034648
96	0x3ea23d5c	0.31687438
97	0x3d4013af	0.04689377
98	0x3d6bb78d	0.057548095
99	0xbda34bc6	-0.07973437
100	0x3e491e53	0.19640474
101	0x3e8fcbe5	0.28085247
102	0x3e4e0326	0.20118389
103	0x3ed78037	0.42090008
104	0xbd94396c	-0.07237515
105	0x3ca93372	0.020654414
106	0x3d8caeb1	0.06869257
107	0x3eb552c3	0.35414705
108	0x3ed4879a	0.41509706
109	0xbbeea96e	-0.007283381
110	0xbd295369	-0.04133931
111	0x3db5c8d5	0.08876196
112	0x3ebbe7fb	0.36700425
113	0x3e072a98	0.13199842
114	0x3e64e88c	0.22354335
115	0xbe5135ac	-0.2043063
116	0xbc753673	-0.014966595
117	0xbd236c86	-0.039898418
118	0x3ed10e0f	0.40831038
119	0x3ef6e0eb	0.48218474
120	0xbcce5cc5	-0.02519072
121	0xbe251037	-0.16119467
122	0xba4f242a	-0.0007901812
123	0xbd6cf440	-0.057850122
124	0x3d9499f3	0.07255926
125	0x3e84b6ed	0.2592081
126	0xbe0d46a2	-0.13796476
127	0xbe5443cb	-0.20728986
128	0xbf0089ad	-0.50210077
129	0xbeac9a02	-0.3371125
130	0x3e9b89f1	0.30378678
131	0x3ea0b77f	0.31389996
132	0xbebb5f4d	-0.36596146
133	0xbef69702	-0.48162085
134	0xbea3f41e	-0.32022184
135	0x3e557219	0.20844306
136	0x3f01e7fc	0.50744605
137	0x3cad32d6	0.021142405
138	0xbe7a92ff	-0.24470137
139	0xbeaf0a85	-0.34187713
140	0x3e993acf	0.2992768
141	0x3f322b9b	0.69597787
142	0x3ef64629	0.48100403
143	0x3e996fbe	0.29968065
144	0xbbea1a42	-0.0071442435
145	0xbbcbcab5	-0.006219233
146	0x3eb31ea3	0.3498431
147	0x3f0f9b8f	0.5609674
148	0x3f1163bc	0.5679281
149	0x3e89bb0a	0.26900512
150	0x3eb3c485	0.3511087
151	0x3e4f2642	0.20229438
152	0xbd90b4b8	-0.07065719
153	0xbe9811c2	-0.29701048
154	0xbe8c09c8	-0.27351213
155	0x3e567cb1	0.20946003
156	0x3e912461	0.28348067
157	0x3e65aa37	0.22428213
158	0x3e740f3f	0.23833941
159	0x3d9744fd	0.07386205
160	0x3d058662	0.03259886
161	0x3e086b11	0.13322093
162	0x3ea61916	0.32441014
163	0x3f323d68	0.6962495
164	0x3f347a08	0.70498705
165	0x3e2042e9	0.15650524
166	0xbda1a927	-0.078935914
167	0x3b96475b	0.004586143
168	0x3da7da0b	0.08195885
169	0x3ee91feb	0.45532164
170	0xbdc368bd	-0.095414616
171	0xbebcd6b6	-0.3688256
172	0xbedee671	-0.43535188
173	0xbf23c5f8	-0.6397395
174	0xbe67187d	-0.22567935
175	0x3ba80873	0.0051279604
176	0xbde81892	-0.113328114
177	0xbe31f405	-0.17378242
178	0xbcadebcb	-0.021230599
179	0x3ecbd00b	0.39807162
180	0xbde2ee94	-0.110806614
181	0xbe6f33e2	-0.23359635
182	0x3bf94155	0.007606665
183	0x3e8095a7	0.25114176
184	0x3ee53ed7	0.44774505
185	0xbf064e48	-0.524632
186	0xbe125b6b	-0.14292686
187	0x3d8f02c5	0.0698295
188	0x3f195d08	0.5990758
189	0x3e826707	0.2546923
190	0xbde0d65b	-0.10978385
191	0x3dd0e6f4	0.10200301
192	0x3f0533c7	0.5203213
193	0x3e6cc753	0.23122911
194	0x3e555a6a	0.20835271
195	0x3ee788a2	0.4522143
196	0x3f0ede51	0.5580798
197	0x3ec39827	0.3820202
198	0x3e5b2d97	0.2140411
199	0x3d10923f	0.03529572

conv1.bias f4 [8]
0	0xbc60bdc2	-0.013717117
1	0xbd11b318	-0.035571188
2	0xbba3739c	-0.004988147
3	0xbb47834b	-0.0030443247
4	0xbcf2e4d2	-0.029650126
5	0xb9d31767	-0.00040262492
6	0x3add5e6c	0.0016889102
7	0xbd171781	-0.03688765

conv2.weight f4 [16, 8, 5, 5]
0	0xbd8b0792	-0.06788553
1	0x3b8d99e0	0.004321322
2	0x3e0b41fb	0.13599388
3	0x3de69193	0.11258235
4	0x3df1bc5e	0.11803506
5	0xbe54a60d	-0.20766468
6	0x3dd30d51	0.10305274
7	0x3e2487d3	0.16067438
8	0x3c9eec3f	0.01939976
9	0xbd079a3f	-0.033106085
10	0xbe618144	-0.22021967
11	0xbd340dff	-0.04395866
12	0x3de51a15	0.111866154
13	0x3d88cf1a	0.066801265
14	0xbd45ffee	-0.048339777
15	0xbe1f4d1c	-0.15556759
16	0xbc9d5940	-0.019207597
17	0x3e322acc	0.17399138
18	0x3e52e7f3	0.20596294
19	0x3d2c1535	0.042012412
20	0x3daa1500	0.08304787
21	0x3de6765b	0.11253043
22	0x3dcbd771	0.099532016
23	0xbd12e7d7	-0.03586563
24	0xbdd17232	-0.10226859
25	0x3d7670ec	0.060166284
26	0xbda8cd55	-0.08242289
27	0xbe05bd76	-0.13060555
28	0xbda02357	-0.078192405
29	0xbdb381e4	-0.08765009
30	0x3cdfce28	0.027319983
31	0xbc9c8d8c	-0.019110464
32	0xbdcb8def	-0.09939181
33	0x3bdf729f	0.006819084
34	0x3dc70408	0.09717566
35	0x3de82b6c	0.11336407
36	0x3d8eed97	0.069789104
37	0xbdd35c2e	-0.10320316
38	0xbdd6f0f0	-0.10495174
39	0xbc04fd27	-0.008116997
40	0xb8d34d67	-0.00010075681
41	0x3e06947c	0.1314258
42	0xbd29b62a	-0.04143349
43	0xbd9031bc	-0.07040736
44	0x3d83e39c	0.064398974
45	0x3d0cc3eb	0.03436653
46	0x3dec985c	0.11552498
47	0x3d74f828	0.059806973
48	0xbd52f829	-0.051506195
49	0x3d0d72fb	0.034533482
50	0x3d899b51	0.067190774
51	0xbe0143d4	-0.1262353
52	0x3cb6cf89	0.022315757
53	0x3d95c171	0.07312287
54	0x3dc6eac2	0.09712745
55	0xbdbcd9a2	-0.09221198
56	0xbd3c1356	-0.045916878
57	0x3e108d24	0.14116341
58	0xbcde1694	-0.027110375
59	0x3ca72f33	0.020408249
60	0xbd1c2384	-0.038119808
61	0x3cb3055c	0.021853141
62	0xbc0944b0	-0.008378193
63	0xbe08b0e5	-0.1334873
64	0xbdd5a5c8	-0.10432011
65	0xbe082ea7	-0.13299046
66	0x3a68b990	0.00088777486
67	0x3d58c6de	0.05292403
68	0x3dcd2606	0.10017018
69	0x3d8157dc	0.06315586
70	0xbe24ff53	-0.16113023
71	0xbdc83585	-0.09775833
72	0xbced4b03	-0.028966432
73	0xbd69ef05	-0.057112712
74	0xbe0cfecf	-0.13769077
75	0xbe37df41	-0.17956258
76	0xbdf95deb	-0.121761166
77	0x3cecf3e4	0.02892489
78	0x3c614418	0.013749145
79	0x3c153290	0.009106293
80	0xbd68303e	-0.056686632
81	0x3d9bd937	0.0760979
82	0x3d38d890	0.045128405
83	0x3ace35f9	0.0015732638
84	0xbd7d0dad	-0.06178062
85	0x3c8bf249	0.017083304
86	0xbd1fa54e	-0.038976006
87	0x3cefade3	0.02925772
88	0x3dfc8881	0.123307236
89	0x3df541ed	0.11975465
90	0xbc9618ab	-0.01832231
91	0xbd73ca28	-0.059518963
92	0x3da1b530	0.07895887
93	0x3e1b8578	0.15187633
94	0xbcabdf8d	-0.02098062
95	0xbe6e4e80	-0.23272133
96	0xbd7a06a4	-0.06104149
97	0x3e0f42db	0.13990347
98	0xbb3b7875	-0.0028605734
99	0xbda35536	-0.07975237
100	0x3da9fb27	0.08299857
101	0xbd9ffce5	-0.07811908
102	0xbdec2d75	-0.11532108
103	0x3c1f3bb1	0.009718821
104	0xbcfcfc59	-0.030882047
105	0x3d345293	0.04402406
106	0xbd03adcd	-0.03214817
107	0xbdf9c6d1	-0.12196124
108	0x3cfd1b1e	0.03089672
109	0xbd4773bb	-0.048694354
110	0xbd37c3b3	-0.044864368
111	0x3c717d5d	0.014739362
112	0x3cafd244	0.021462567
113	0xbd38985c	-0.045067176
114	0xbdb8c1dc	-0.09021351
115	0x3a429a25	0.0007423482
116	0x3d7e2d4a	0.06205491
117	0xbdcadac6	-0.09905009
118	0xbd23251d	-0.039830316
119	0x3dd51c18	0.10405749
120	0x3dfb105c	0.1225898
121	0x3df56755	0.119826
122	0x3d9e63a6	0.0773385
123	0x3b3a1665	0.0028394696
124	0xbd44d4dc	-0.04805456
125	0xbe510259	-0.20411052
126	0xbd61b7ab	-0.0551068
127	0xbccbd7b3	-0.024883127
128	0xbdb88eb5	-0.09011594
129	0x3dc91e25	0.09820203
130	0xbdd38a09	-0.103290625
131	0xbc46902a	-0.012119332
132	0xbd97baca	-0.07408674
133	0xbe1efc90	-0.15526032
134	0x3bf03388	0.0073303618
135	0xbdfae653	-0.12250962
136	0x3dd4fc4b	0.103996836
137	0x3e5b233c	0.2140016
138	0x3de0574b	0.1095415
139	0x3e0b32b9	0.13593568
140	0x3d7411a2	0.05958713
141	0x3e87275d	0.2639722
142	0x3e908f51	0.28234342
143	0x3c5cceac	0.013477009
144	0x3a6eedb9	0.0009114403
145	0x3dcee703	0.10102656
146	0x3e9f90b0	0.31165075
147	0x3ec2f858	0.38080096
148	0x3e08e67f	0.13369177
149	0xbc14fb46	-0.009093111
150	0xbe51ebe2	-0.20500138
151	0xbd7011da	-0.058610775
152	0x3daf429d	0.08557627
153	0x3e6aba10	0.2292254
154	0x3dfcf259	0.12350912
155	0xbe8d3d7a	-0.27585965
156	0xbe20b39d	-0.15693517
157	0x3da94a98	0.08266181
158	0x3e075c5a	0.13218823
159	0x3ddaa13e	0.10675286
160	0xbe6dcb97	-0.23222195
161	0xbcd1fb76	-0.025632601
162	0x3e4717e9	0.19442715
163	0xbc74851a	-0.014924312
164	0xbc631ad5	-0.013861378
165	0x3c9515e3	0.018198913
166	0x3d4858c2	0.04891277
167	0x3e704bea	0.23466459
168	0x3de3512c	0.11099467
169	0x3cc4ff40	0.024047494
170	0x3e26ae36	0.16277394
171	0x3e5fd0d9	0.21857013
172	0x3e38ccd1	0.18046881
173	0xbd2f9609	-0.042867694
174	0xbda86616	-0.08222596
175	0xbd8369e2	-0.0641668
176	0xbc9d0185	-0.019165764
177	0x3d91ac30	0.0711292
178	0x3dc59b6e	0.096487865
179	0xbd4175ea	-0.047231592
180	0x3dacbc5c	0.08434364
181	0x3d611519	0.05495176
182	0xbc6e5d2a	-0.014548579
183	0x3c22bb33	0.009932327
184	0xbdbfa3c9	-0.093574114
185	0x3e024476	0.12721428
186	0x3dbf4e8d	0.09341154
187	0xbd31889a	-0.043343164
188	0x3d282825	0.04105391
189	0x3d31ab51	0.04337627
190	0xbbb48122	-0.005508558
191	0xbdebd205	-0.115146674
192	0xbe217a9f	-0.15769432
193	0x3d0d4d0a	0.0344973
194	0xbdfc75bb	-0.12327143
195	0xbdd86387	-0.10565858
196	0xbe2b01bb	-0.16699879
197	0xbd880001	-0.06640626
198	0xbd9bb624	-0.076031
199	0xbe067072	-0.13128832
200	0x3ce77e80	0.028258562
201	0xbca11561	-0.019663515
202	0x3dfe7449	0.124245234
203	0x3e442034	0.1915291
204	0x3e04f3f4	0.12983686
205	0xbc9f55d8	-0.019450113
206	0x3babb7a5	0.005240398
207	0x3e34117f	0.17584799
208	0x3e15f571	0.1464441
209	0x3c734343	0.014847579
210	0xbc65bbaa	-0.014021793
211	0xbe7ffd47	-0.24998961
212	0xbeac0974	-0.33600962
213	0xbe6e4c05	-0.23271187
214	0xbe1be716	-0.15224871
215	0x3dd695ce	0.10477792
216	0x3d6b265c	0.05740963
217	0x3dea305d	0.11435006
218	0xbc0057e5	-0.007833456
219	0x3d0935ab	0.033498447
220	0x3dff0889	0.124528
221	0x3dc0f524	0.09421757
222	0x3d85c254	0.06531206
223	0x3ddcf367	0.10788613
224	0xbc28ec2c	-0.010310214
225	0x3d620845	0.055183668
226	0x3e10e6cf	0.14150546
227	0x3e13980b	0.14413469
228	0x3e297fe2	0.1655269
229	0x3ce14700	0.027499676
230	0xbe00b1a3	-0.12567763
231	0x3d80b0cc	0.06283721
232	0x3de24cc1	0.11049796
233	0x3cf04e1d	0.029334122
234	0xbd1990c6	-0.037491582
235	0xbe0159a0	-0.12631845
236	0xbe59c50b	-0.21266572
237	0xbe105707	-0.14095698
238	0xbe124b02	-0.14286426
239	0xbe167040	-0.14691257
240	0x3b1d6549	0.002401667
241	0xbe1f88db	-0.1557955
242	0xbe50c977	-0.20389353
243	0xbe0afe8f	-0.13573669
244	0x3c171990	0.009222403
245	0x3dd98789	0.106215544
246	0x3d9401cb	0.072269045
247	0x3e158997	0.14603268
248	0x3d99114a	0.07474001
249	0x3d9b03d4	0.075690895
250	0xbe02b20b	-0.1276323
251	0xbca82603	-0.020525938
252	0x3e0a59f6	0.1351088
253	0x3e7c99a0	0.24667978
254	0x3e4a9afe	0.19785687
255	0xbdb098ff	-0.08622932

conv2.bias f4 [16]
0	0xbde1d303	-0.110265754
1	0x3e1143ec	0.14186066
2	0xbcec338b	-0.028833171
3	0x3db1d65a	0.086834624
4	0xbdd44659	-0.1036498
5	0xbc1d01a8	-0.009582914
6	0xbdf82544	-0.12116483
7	0xbda8e445	-0.08246664
8	0xbe6d5c16	-0.23179659
9	0xbdc563df	-0.096381895
10	0xbd668490	-0.056278765
11	0xbd18d1b0	-0.03730935
12	0x3d22a2f4	0.039706185
13	0xbc575686	-0.013143187
14	0x3e818d03	0.25302896
15	0x3c8510e2	0.016243402

conv3.weight f4 [32, 16, 3, 3]
0	0x3cf089cd	0.029362584
1	0xbd9c9591	-0.07645715
2	0x3b810160	0.0039369315
3	0xbd8c6ac3	-0.06856301
4	0xbc17402e	-0.00923161
5	0x3de94a4d	0.11391125
6	0x3dfb034e	0.1225649
7	0xbc4be2b7	-0.01244419
8	0x3cec7ead	0.028868997
9	0x3e2fce81	0.17168619
10	0x3d5c79b6	0.05382701
11	0x3e0932a7	0.13398229
12	0xbde9ada3	-0.11410072
13	0xbd922acf	-0.07137071
14	0x3ddf45b1	0.109019645
15	0xbe22c740	-0.1589632
16	0xbde019df	-0.109424345
17	0x3e1f3dee	0.15550968
18	0x3de5436c	0.111945
19	0xbd86a830	-0.06575048
20	0x39065f80	0.00012814812
21	0xbbf4903e	-0.007463484
22	0x3c98d3a7	0.018655611
23	0xbc1b5646	-0.009481018
24	0xbc0141ce	-0.007889224
25	0xbd1a1be1	-0.037624244
26	0x3d8cfdd1	0.06884349
27	0x3d52c90d	0.05146127
28	0xbd06b2d2	-0.03288538
29	0xbe0cf92f	-0.13766931
30	0xbd33cb55	-0.043895084
31	0xbe194d8c	-0.14970988
32	0x3ce01ed2	0.027358446
33	0xbe1b3c9c	-0.1515984
34	0x3c6546a6	0.013993895
35	0x3deabe37	0.11462062
36	0x3cc21c7c	0.023695223
37	0xbe452e24	-0.19255883
38	0xbe333305	-0.17499931
39	0x3cb61721	0.022227826
40	0xbda661c7	-0.08124118
41	0x3d1e15cf	0.038595017
42	0xbdb16b2a	-0.08663018
43	0xbdd41e43	-0.103573345
44	0x3d762e66	0.060102843
45	0x3c2ceec3	0.010554972
46	0x3e14a920	0.14517641
47	0x3e1a4343	0.15064721
48	0x3d285fc4	0.041106954
49	0x3ca7334e	0.020410206
50	0x3c8342a0	0.01602298
51	0xbdc02d5c	-0.093836516
52	0xbd8c53d1	-0.06851924
53	0xbdf7b027	-0.12094145
54	0xbd8ae68a	-0.06782253
55	0x3d88fd16	0.06688897
56	0xbd5dd565	-0.054158587
57	0xbd7d3dec	-0.06182663
58	0x3c84188e	0.01612499
59	0xbcf6ecbd	-0.030142182
60	0x3e00dd81	0.12584497
61	0x3d82df62	0.06390263
62	0xbdcbced2	-0.09951557
63	0xbcb8fb6d	-0.022580827
64	0xbcd21b75	-0.025647858
65	0xbd77e1e2	-0.060518153
66	0xbd7adffa	-0.061248757
67	0x3cca08c8	0.02466239
68	0x3d33fefc	0.043944344
69	0x3cd1cd06	0.025610458
70	0x3cdcbae8	0.026944593
71	0xbd7745b2	-0.0603692
72	0xbd41a67f	-0.047277924
73	0xbdb84f0b	-0.08999451
74	0xbd7feda8	-0.062482506
75	0xbdb1ad8d	-0.0867568
76	0x3b30a4e1	0.0026953744
77	0x3dca07c6	0.09864764
78	0x3dc21c85	0.09478096
79	0x3dab00af	0.0834974
80	0x3d18a04a	0.03726224
81	0x3de10eba	0.10989137
82	0xbe1c2a72	-0.15250567
83	0xbdb8a4e5	-0.09015826
84	0x3dede216	0.11615388
85	0x3daedf45	0.08538679
86	0x3c0db5a7	0.008649266
87	0x3e5921da	0.2120432
88	0x3cbd9d36	0.023146253
89	0xbd388b39	-0.045054648
90	0x3d2fc097	0.042908277
91	0x3c6ea467	0.014565564
92	0xbd8aedb4	-0.067836195
93	0x3e164312	0.14674023
94	0xbd70e144	-0.05880858
95	0x3d29b942	0.04143644
96	0xbd879322	-0.0661986
97	0xbd3fb33d	-0.046801794
98	0x3d2ba801	0.041908268
99	0x3c25053d	0.01007205
100	0xbd8e18b7	-0.06938308
101	0xbdc26e3a	-0.0949368
102	0x3cce7d49	0.025206225
103	0x3ca1d1f2	0.01975343
104	0xbba9174c	-0.005160248
105	0x3d2dd313	0.042437624
106	0x3ccbaebd	0.024863595
107	0x3ca93a73	0.020657754
108	0x3d86718c	0.06564626
109	0x3e06893a	0.13138285
110	0x3c15df09	0.009147414
111	0xbe1f5d48	-0.15562928
112	0xbde94f08	-0.11392027
113	0x3d895829	0.06706268
114	0xbdf3dbd9	-0.11907167
115	0x3cdc363e	0.026881333
116	0x3dcf4e84	0.101223975
117	0x3d8ee01b	0.069763385
118	0xbd8a4253	-0.067509316
119	0xbcc0b928	-0.02352579
120	0x3dd27b47	0.102774195
121	0x3b826b45	0.0039800727
122	0x3d6f2984	0.0583892
123	0x3e06c4a2	0.13160947
124	0x3e05e269	0.1307465
125	0xbd46e47b	-0.04855774
126	0x3e707c72	0.23484972
127	0x3e69d52a	0.22835222
128	0x3e4878ab	0.19577281
129	0xbde93287	-0.113865905
130	0xbdbd79f6	-0.09251778
131	0x3e1ecbe2	0.15507463
132	0xbc5eac6d	-0.013590914
133	0x3dca7661	0.0988586
134	0x3e989a42	0.2980519
135	0x3d3ae6c2	0.045630224
136	0x3e09ca2b	0.13456027
137	0x3d5a0dd7	0.053235855
138	0xbdc638ab	-0.09678777
139	0x3dc847a9	0.09779293
140	0x3da8e189	0.082461424
141	0xbdcb73d6	-0.09934203
142	0xbcbbf415	-0.022943536
143	0x3dfcea90	0.12349427
144	0xbd87d51e	-0.06632446
145	0x3b4cfd99	0.0031279086
146	0xbd6985e2	-0.057012446
147	0x3d5b68d2	0.05356676
148	0x3b94146c	0.004519036
149	0xbd41d1a2	-0.047319062
150	0xbca6a9f5	-0.020344714
151	0xbd9ed072	-0.077546015
152	0xbd81a94d	-0.0633112
153	0xbcf23476	-0.029566031
154	0x3d57140a	0.052509345
155	0x3d3203ba	0.043460585
156	0xbdb4a1ef	-0.08819949
157	0x3a1bd185	0.00059440016
158	0x3cbe8722	0.023257796
159	0xbd1345a5	-0.03595509
160	0x3cd08d04	0.025457866
161	0xbd169026	-0.036758564
162	0xbab8e1a5	-0.0014105333
163	0xbd637556	-0.055531822
164	0xbd3cbf1d	-0.046080697
165	0xbce9dbc6	-0.028547179
166	0x3c33394a	0.010938952
167	0xbdbd845c	-0.09253761
168	0xbdb8daba	-0.09026094
169	0xbd0b0de0	-0.03394878
170	0xbda4e5a7	-0.08051615
171	0xbd920bf7	-0.07131188
172	0xbd64cac3	-0.05585743
173	0x3d1300c5	0.035889406
174	0x3d32bbed	0.04363625
175	0xbc8adb7e	-0.016950365
176	0x3caa195f	0.020764051
177	0x3b7cab20	0.0038554147
178	0x3c6b5480	0.014363408
179	0xbcc8dc76	-0.024519186
180	0x3d59df73	0.053191613
181	0xbd1b03fa	-0.03784559
182	0xbb994c6a	-0.0046782987
183	0x3d0ca4d7	0.03433689
184	0xbd55428e	-0.052065425
185	0xbd67c56e	-0.056584768
186	0xbd4c9ae9	-0.04995242
187	0xbc2c5c4d	-0.010520053
188	0xbd714515	-0.058903772
189	0xbbeb9c0d	-0.0071902336
190	0xbd754deb	-0.05988876
191	0xbda47a53	-0.08031144
192	0xbda878af	-0.082261436
193	0xbc9cf5eb	-0.019160232
194	0x3d236dfb	0.039899807
195	0x3d38a470	0.045078695
196	0x3c8bf22b	0.017083248
197	0xbcdc4f10	-0.026893169
198	0xbdc6fd0b	-0.09716233
199	0xbdadac88	-0.08480173
200	0x3cc78288	0.024354234
201	0xbd023884	-0.03179218
202	0x3c9a98e3	0.01887173
203	0xbc5e9375	-0.013584961
204	0xbd14c2f8	-0.03631875
205	0xbdbe4b5d	-0.09291718
206	0xbaf5bbd2	-0.0018747991
207	0xbd86dff5	-0.06585685
208	0xbc4a7e9f	-0.01235929
209	0xbd7fe461	-0.06247366
210	0xbddaa407	-0.10675817
211	0x3c368a61	0.011141391
212	0x3ce277be	0.027644988
213	0x3c3bcbc3	0.011462155
214	0xbdc36c2f	-0.09542119
215	0xbd82cf08	-0.06387144
216	0xbd89aa6f	-0.06721961
217	0x3b008b01	0.0019614103
218	0xbcff426d	-0.031159604
219	0xbc41baf4	-0.011824358
220	0xbdaab700	-0.08335686
221	0xbc808c91	-0.015692027
222	0xbdaed8c8	-0.085374415
223	0x3d1495de	0.036275737
224	0xbdbaafa7	-0.09115534
225	0xbdd58008	-0.10424811
226	0x3cd430ef	0.02590224
227	0xbd8d9948	-0.06914002
228	0xbd1748c9	-0.036934648
229	0xbd2dd0db	-0.04243551
230	0xbd1796fe	-0.03700923
231	0x3ce697ba	0.02814852
232	0xbc329dd3	-0.010901886
233	0x3d2413a6	0.0400578
234	0xbdaf88a1	-0.08570982
235	0xbbe809e6	-0.007081258
236	0xbc5d8288	-0.013519891
237	0xbd9691c2	-0.0735202
238	0x3d4d3f82	0.050109394
239	0xbd98cac8	-0.074605525
240	0xbd83fc32	-0.06444587
241	0x3acf323e	0.001580782
242	0xbd46c33a	-0.048526026
243	0xbdb60a82	-0.08888723
244	0x3b100123	0.0021973334
245	0xbb8838c9	-0.00415716
246	0x3ca62893	0.02028302
247	0xbda69aac	-0.0813497
248	0xbd0a324b	-0.03373937
249	0xbd961c29	-0.0732959
250	0xbd18687b	-0.037209015
251	0xbb046e69	-0.002020741
252	0xbcc6f178	-0.024285063
253	0xbddfec75	-0.109337725
254	0xbd874113	-0.06604209
255	0xbd8b1427	-0.06790953

conv3.bias f4 [32]
0	0xbd452f8a	-0.04814104
1	0xbd38eefc	-0.04514979
2	0xbd53ebc1	-0.051738504
3	0xbd8def44	-0.06930402
4	0x3dd55c6e	0.1041802
5	0xbbbf7cf8	-0.005843755
6	0xbd8406ab	-0.06446584
7	0xbd11c18d	-0.035584975
8	0x3dace69d	0.084424235
9	0x3ca0d841	0.019634368
10	0xbb92f21f	-0.0044844295
11	0xbb62b632	-0.003459346
12	0x3d59d2da	0.0531796
13	0x3db23020	0.08700585
14	0x3c3e4239	0.011612468
15	0xbd8aa086	-0.06768899
16	0x3d9130ee	0.07089411
17	0x3daaaa1d	0.08333228
18	0xbd18fdff	-0.037351605
19	0xbdae7614	-0.08518615
20	0x3d34e011	0.044159
21	0x3d78a397	0.060702886
22	0xbce781bb	-0.028260102
23	0x3d9bb492	0.076028004
24	0x3c5ae7a6	0.013360893
25	0xbbd4c2b9	-0.0064929393
26	0x3d8018f4	0.062547594
27	0x3d8854cd	0.066567995
28	0x3d67e738	0.05661699
29	0xbd49892c	-0.049203083
30	0x3d2ceffa	0.042221047
31	0xbd6b1bdd	-0.05739962

fc1.weight f4 [32, 128]
0	0xbd0ceb48	-0.03440407
1	0x3d33a533	0.043858718
2	0x3d142061	0.03616369
3	0x3e768e81	0.24077798
4	0xbc8b6030	-0.01701364
5	0xbd6e3996	-0.058160387
6	0xbd80e167	-0.06292992
7	0x3d2289aa	0.039682068
8	0xbc30d5f1	-0.010793195
9	0xbbab6532	-0.0052305693
10	0x3d228f67	0.03968754
11	0xbd440105	-0.047852535
12	0xbdfea234	-0.124332815
13	0x3dc55ba5	0.096366204
14	0xbc3db9a5	-0.011579906
15	0x3dee16b4	0.11625424
16	0xbc4c9664	-0.012487028
17	0x3dc2c871	0.095108874
18	0xbcfeb6b0	-0.031092972
19	0x3e2b19fb	0.1670913
20	0x3c1d49eb	0.009600143
21	0xbd6f96df	-0.05849349
22	0xbd47884b	-0.048713963
23	0x3da34f09	0.07974059
24	0xbc7a8ae8	-0.015291907
25	0x3b56032d	0.0032655702
26	0x3d5deb63	0.05417956
27	0x3e36eb62	0.17863229
28	0x3d6c08a1	0.057625417
29	0x3e10c6cb	0.14138333
30	0xbe67b080	-0.22625923
31	0xbc0eae65	-0.008708571
32	0x3d9115fc	0.07084271
33	0x3d8101f3	0.062992
34	0x3db9aeab	0.090665184
35	0x3d84755a	0.064676955
36	0xba9e19e4	-0.0012062159
37	0x3e163596	0.14668879
38	0x3c18f9c7	0.009336895
39	0x3d756a12	0.05991561
40	0xbcaefa12	-0.021359477
41	0x3ccbb723	0.0248676
42	0x3d586dd6	0.052839123
43	0x3e33d7d0	0.17562795
44	0x3c616023	0.013755831
45	0x3d1a588c	0.0376821
46	0xbd8dfd47	-0.069330744
47	0xbd946429	-0.072456665
48	0xbd97ecd6	-0.0741822
49	0xbe0eb659	-0.13936748
50	0xbd19dae7	-0.037562277
51	0xbc95c922	-0.018284384
52	0xbd6263c0	-0.05527091
53	0x3c0be4c3	0.008538428
54	0x3c570dbc	0.013125833
55	0xbc8306c6	-0.01599444
56	0xbd4e16d8	-0.050314754
57	0xbe24a2e9	-0.1607777
58	0x3e2ed2ff	0.17072676
59	0xbc1051b3	-0.008808541
60	0x3d52eb93	0.051494192
61	0x3d916545	0.07099394
62	0xbe28008e	-0.16406462
63	0xbda5d74c	-0.08097705
64	0xbd460d1a	-0.04835234
65	0xbd5ccdeb	-0.053907316
66	0x3cd79fc0	0.026321292
67	0x3dc9983b	0.09843489
68	0x3e071719	0.13192405
69	0x3d41784f	0.047233876
70	0xbd808aac	-0.062764496
71	0xbcf6ec8c	-0.030142091
72	0x3d6c5391	0.057696883
73	0x3c11f5bb	0.008908684
74	0xbd14836b	-0.036258142
75	0x3dea8439	0.11451001
76	0x3de7ee06	0.11324696
77	0x3cddc1e0	0.027069986
78	0x3d041fff	0.032257076
79	0xbc9b1157	-0.018929167
80	0xbcc77c3e	-0.024351235
81	0xbe0cd71e	-0.13753936
82	0x3e0645ae	0.13112518
83	0x3d35bccc	0.044369504
84	0x3d40338c	0.04692416
85	0xbca38fdf	-0.019966064
86	0x3da775ad	0.08176742
87	0xbca1850f	-0.019716768
88	0x3d2a476f	0.04157203
89	0x3dd162a9	0.10223896
90	0x3d69e319	0.057101343
91	0x3d8ef02e	0.069794044
92	0x3e00deec	0.12585038
93	0x3e15c60f	0.14626335
94	0x3dd3f0c0	0.10348654
95	0x3deb5856	0.11491458
96	0xbcf887e1	-0.03033823
97	0xbdc38713	-0.09547248
98	0x3e638fd2	0.22222832
99	0x3e3f0003	0.18652348
100	0x3d7fa454	0.062412575
101	0xbc6cf42f	-0.014462515
102	0x3d212c21	0.039348725
103	0x3d8bf1a4	0.06833199
104	0xb928e79d	-0.00016108011
105	0xbbfd85dd	-0.007736905
106	0x3cc9c338	0.02462922
107	0xbe47bc71	-0.19505478
108	0x3d053e48	0.0325301
109	0x3cb9e5da	0.02269261
110	0x3dc46d2c	0.095911354
111	0x3df4782a	0.11936982
112	0xbda59d5a	-0.08086653
113	0xbd807b25	-0.06273488
114	0x3d2bf5d7	0.041982498
115	0x3d4af67b	0.04955147
116	0xbce13d59	-0.027495073
117	0xbd6f245f	-0.058384296
118	0x3d0d5cd7	0.034512367
119	0x3ccbad45	0.024862895
120	0xbdd88679	-0.105725236
121	0xbaa0ebf6	-0.0012277353
122	0x3db57be7	0.08861523
123	0x3d89fbc7	0.06737476
124	0xbdaf7375	-0.085669436
125	0x3d8f5580	0.0699873
126	0x3d96bdc1	0.073604114
127	0x3e52eb58	0.20597589
128	0xbd8290af	-0.063752525
129	0xbdb14184	-0.08655074
130	0x3cabdec8	0.020980254
131	0xbbd708d8	-0.0065623336
132	0x3d6b64fa	0.057469346
133	0x3ccbdaf0	0.024884671
134	0x3c15565a	0.009114826
135	0x3cc0b5e4	0.023524232
136	0xbd48bf31	-0.04901046
137	0xbd43c953	-0.04779942
138	0xbc517966	-0.012785291
139	0xb9c8490d	-0.000382014
140	0x3e102d7c	0.14079851
141	0xbdbb960f	-0.09159481
142	0x3d4f4030	0.050598323
143	0xbd9cc45f	-0.07654642
144	0x3de8fad5	0.113759674
145	0x3dc6f88f	0.097153775
146	0x3e00094d	0.12503548
147	0xbdb6637d	-0.08905695
148	0x3bd8c808	0.0066156425
149	0xbc7a3ad8	-0.0152728185
150	0xbd962405	-0.07331089
151	0x3d9ad937	0.07560962
152	0x3c855afa	0.016278733
153	0xbdd22798	-0.10261458
154	0xbd2a33cd	-0.041553307
155	0xbda8c011	-0.08239759
156	0x3d7518ee	0.059838228
157	0x3d28392d	0.041070152
158	0x3e21a906	0.15787134
159	0x3d1131fc	0.03544806
160	0xbcd22aba	-0.02565514
161	0x3d3a0ed0	0.045424283
162	0x3c9f46ee	0.019443002
163	0x3d4ee235	0.050508697
164	0x3d752e50	0.05985862
165	0xbc7611e8	-0.015018918
166	0xbc03fc07	-0.0080556935
167	0xbd69effe	-0.05711364
168	0x3d1a42b0	0.037661254
169	0xbd46520f	-0.0484181
170	0xbd7d2fe3	-0.061813246
171	0x3c70150d	0.014653456
172	0x3d35709a	0.04429684
173	0x3caa9d64	0.020827003
174	0x3bda5c0d	0.0066638053
175	0x3ddf1792	0.108931676
176	0x3d840fae	0.06448303
177	0xbe393ea4	-0.18090302
178	0x3d042022	0.032257207
179	0xbc299cdf	-0.010352342
180	0x3ddc5508	0.10758406
181	0x3d7081b3	0.05871744
182	0x3d493e03	0.049131405
183	0x3dc4f212	0.09616484
184	0xbd12becf	-0.0358265
185	0x3c52af9c	0.012859251
186	0x3cd88b38	0.026433572
187	0xbcf7f7d7	-0.030269546
188	0x3cba2a66	0.022725295
189	0xbd7c0a4f	-0.06153327
190	0x3d9dd273	0.07706156
191	0x3df30d2c	0.11867747
192	0x3d7272cd	0.059191514
193	0x3cd404aa	0.02588113
194	0x3db7e112	0.08978476
195	0xbe2eb80c	-0.17062396
196	0x3caac03f	0.020843623
197	0x3df620c8	0.12017971
198	0x3d0a3617	0.03374299
199	0x3e0b4bc5	0.13603123
200	0xbdc1906a	-0.09451373
201	0x3d1b2e42	0.03788591
202	0x3cf964d0	0.030443579
203	0x3c3d2df4	0.011546601
204	0x3d90a96a	0.07063563
205	0xbdfa8ea6	-0.12234239
206	0x3d60b601	0.054861072
207	0x3d95ce30	0.07314718
208	0xbdaae83d	-0.08345077
209	0xbd6fe254	-0.058565453
210	0xbc97f5ba	-0.018549789
211	0x3d0aa6fe	0.033850662
212	0xbc094f68	-0.008380748
213	0xbd10db4b	-0.035365384
214	0x3d87b658	0.06626576
215	0xbc3b41ba	-0.011429245
216	0xbc9fb973	-0.019497609
217	0xbb56e6f9	-0.003279148
218	0xbdecd1b8	-0.11563438
219	0x3cddf479	0.027094113
220	0x3d76a968	0.060220152
221	0x3ce1463c	0.02749931
222	0xbc86cce0	-0.016455114
223	0xbcf8871d	-0.030337865
224	0xbe2090d6	-0.1568025
225	0xbdcbc560	-0.09949756
226	0xbe1fe213	-0.15613584
227	0xbdf07fab	-0.11743101
228	0x3e0fdee0	0.14049864
229	0x3b8e870f	0.0043495963
230	0x3de21f68	0.110411465
231	0xbda67afd	-0.08128927
232	0xbd96b79b	-0.07359239
233	0xbd71e865	-0.05905952
234	0x3be7c082	0.0070725093
235	0x3e0fbd2a	0.14037004
236	0x3e652077	0.22375666
237	0x3e715550	0.235677
238	0xbc054294	-0.008133549
239	0x3d3d60f2	0.046235032
240	0x3e076013	0.13220243
241	0x3cc2a088	0.023758188
242	0xbd199bd5	-0.03750213
243	0xbdae73f7	-0.08518212
244	0x3bd8c1c6	0.0066148965
245	0xbdbfb509	-0.093607016
246	0xbd0bf940	-0.03417325
247	0x3a43b9be	0.00074663374
248	0x3ce57f83	0.028014904
249	0xbd56f519	-0.052479837
250	0xbdb586cb	-0.088636
251	0xbe110395	-0.14161523
252	0x3dd9f818	0.10643023
253	0xbc7c32e8	-0.015392996
254	0x3dcec093	0.10095324
255	0xbd5ed498	-0.054401964

fc1.bias f4 [32]
0	0x3e160af3	0.14652614
1	0x3d4d607f	0.050140854
2	0x3d88a69f	0.066724055
3	0x3e05feb0	0.13085437
4	0x3cd586bb	0.026065221
5	0x3c9e12d6	0.019296091
6	0x3d79c4dc	0.060978755
7	0x3d3fc5df	0.046819564
8	0x3da9f035	0.08297769
9	0x3c7e3af5	0.015516986
10	0x3d98df9a	0.074645236
11	0x3cc31687	0.023814453
12	0xbd88e3c8	-0.06684071
13	0x3bb53339	0.005529788
14	0x3d9e2299	0.07721443
15	0xbbfef53b	-0.0077806986
16	0xbcdaa4c0	-0.026689887
17	0xbd4a6fa4	-0.049422875
18	0xbd86a5e2	-0.065746084
19	0x3dfebbf1	0.12438191
20	0x3cf8a268	0.030350879
21	0xbda1c75b	-0.07899352
22	0x3dc64f62	0.0968311
23	0x3de10fd8	0.1098935
24	0xbdffe57c	-0.124949425
25	0xbd4302d1	-0.047610108
26	0xbd6ff30b	-0.058581393
27	0x3c6ac5e4	0.014329407
28	0x3aace349	0.0013190295
29	0x3d857973	0.06517305
30	0xbd43f6f6	-0.047842942
31	0x3d4dba54	0.050226524

fc2.weight f4 [16, 32]
0	0x3e3999fb	0.18125145
1	0xbd02fc16	-0.03197869
2	0x3c399e09	0.011329182
3	0x3ea531d4	0.32264578
4	0xbe850301	-0.25978854
5	0x3cda3625	0.026637146
6	0xbde96b7a	-0.11397453
7	0x3d033097	0.03202876
8	0x3e48f254	0.19623691
9	0x3e1fb129	0.15594925
10	0xbe011d52	-0.12608841
11	0x3c5ecc49	0.01359851
12	0xbda27ba0	-0.07933736
13	0x3dbab140	0.09115839
14	0x3e12836b	0.14307944
15	0x3da8142e	0.08206974
16	0x3c84ebd2	0.01622573
17	0x3d62a4b1	0.055332843
18	0x3dfc3518	0.12314814
19	0x3e6b8a81	0.23002054
20	0xbe95db2a	-0.2926877
21	0xbe0a96e5	-0.13534124
22	0xbda366ed	-0.07978616
23	0xbc3d1d92	-0.011542695
24	0xbc7a776d	-0.015287262
25	0x3e56cc18	0.20976293
26	0xbc2fdf19	-0.010734343
27	0xbe3f9fd8	-0.1871332
28	0x3dab5bd7	0.083671264
29	0xbe1bd7bd	-0.15219016
30	0xbe010be5	-0.12602194
31	0xbdcc6bb3	-0.099814795
32	0x3e805613	0.2506567
33	0xbeb12ae4	-0.34603035
34	0x3e866374	0.26247752
35	0xbd989517	-0.07450312
36	0xbca523a0	-0.020158589
37	0x3e315a2a	0.17319551
38	0x3e56bd5a	0.2097067
39	0xbdf8391d	-0.121202685
40	0x3dca9f1b	0.09893628
41	0xbcd09dae	-0.025465813
42	0xbd525645	-0.051351804
43	0xbde7c7bd	-0.11317394
44	0xbdbed928	-0.09318763
45	0x3ad81b04	0.0016487543
46	0x3da91449	0.08255822
47	0xbe18e2c5	-0.14930256
48	0x3c780078	0.0151368305
49	0x3d1b4d7a	0.037915684
50	0x3e003d4a	0.1252338
51	0x3c6d0e8d	0.014468801
52	0xbe8a5791	-0.27019933
53	0xbc13d3f0	-0.009022698
54	0xbeef5a9d	-0.4674882
55	0xbd4a4416	-0.049381338
56	0x3e20369f	0.15645836
57	0xbe5701c9	-0.20996775
58	0x3d90451c	0.070444316
59	0x3d685d30	0.056729496
60	0xbdced055	-0.1009833
61	0x3cca64fe	0.02470636
62	0x3db5077d	0.08839319
63	0x3d27aff3	0.040939283
64	0x3e1ab73d	0.15108962
65	0x3dbacd09	0.091211386
66	0x3c95717d	0.018242592
67	0x3e90f0e0	0.28308773
68	0x3e2f8786	0.17141542
69	0x3de84c66	0.11342697
70	0x3d931a76	0.071827814
71	0x3e59e811	0.21279933
72	0xbe10dfcb	-0.1414787
73	0xbdf8f78f	-0.12156593
74	0x3e4da819	0.20083655
75	0xbc9d98ea	-0.019237954
76	0xbdab5e1e	-0.08367561
77	0xbd1a2970	-0.037637174
78	0x3e4c1661	0.19930412
79	0x3d0981f5	0.033571202
80	0x3e4b272d	0.19839163
81	0xbe2698d6	-0.1626924
82	0x3d2eb207	0.04265025
83	0x3e4584a3	0.19288878
84	0xbd56f2bd	-0.052477587
85	0x3c3a7820	0.011381179
86	0x3c18861e	0.00930932
87	0x3e11e7ac	0.14248532
88	0x3ce3f6cf	0.027827648
89	0xbe135563	-0.14388041
90	0xbdd13bc9	-0.10216481
91	0xbd8d0ef4	-0.06887618
92	0x3dfbfb16	0.1230375
93	0x3d1f6409	0.03891376
94	0xbdeb5998	-0.11491698
95	0x3bd86013	0.00660325
96	0x3e43e62a	0.1913077
97	0xbd18b9c0	-0.03728652
98	0xbdb1b57a	-0.08677192
99	0xbd367685	-0.044546623
100	0x3e6f4d7e	0.23369405
101	0xbdfe60b1	-0.12420786
102	0x3dbe28e6	0.092851445
103	0x3caf3eb9	0.021392213
104	0xb99fcb4f	-0.0003047832
105	0xbdb55dd7	-0.08855789
106	0x3e1c001b	0.15234415
107	0x3d825799	0.06364364
108	0xbbaf8a32	-0.0053570503
109	0x3d80c1ec	0.06286988
110	0xbe0828e9	-0.13296856
111	0xbca7bece	-0.020476725
112	0x3e226dee	0.15862247
113	0x3e3c02a1	0.18360378
114	0x3e28e87e	0.16494939
115	0xbdfeb408	-0.12436682
116	0xbdaa55f4	-0.083171755
117	0x3dc89889	0.09794719
118	0xbdcd66a2	-0.10029341
119	0x3ddfecbc	0.109338254
120	0xbde56cf9	-0.112024255
121	0x3e32e558	0.174703
122	0xbdda8287	-0.10669427
123	0xbd2dc48c	-0.04242377
124	0x3eadb3cd	0.3392624
125	0x3b2cfeb2	0.0026396927
126	0xbe49ed07	-0.19719325
127	0x3e689cb9	0.22716035
128	0xbcc61f60	-0.024184883
129	0x3e011aef	0.1260793
130	0x3dd941b9	0.10608239
131	0xbcdcca45	-0.026951918
132	0xbe3d713d	-0.18500228
133	0x3dcd5789	0.10026462
134	0x3e13b93a	0.14426127
135	0x3dcaea52	0.09907974
136	0x3c82685c	0.015918903
137	0x3dfd5286	0.12369256
138	0xbdaae050	-0.083435655
139	0x3dc3d521	0.095621355
140	0xbd30d648	-0.043173105
141	0x3d131fbc	0.035918936
142	0x3d4fc2b8	0.050722808
143	0xbe4a0d93	-0.1973174
144	0xbd857997	-0.06517332
145	0x3dbe165d	0.09281609
146	0xbd31dbcc	-0.043422505
147	0x3e5de635	0.21669848
148	0x3dc287ee	0.09498583
149	0xbde042a6	-0.10950212
150	0x3e0add52	0.1356099
151	0x3dd81282	0.10550405
152	0x3decc6d7	0.11561363
153	0xbe323db2	-0.17406347
154	0x3e1a3a9c	0.1506142
155	0x3c288e37	0.010287813
156	0x3e5aac79	0.21354856
157	0xbe6d9dcb	-0.23204724
158	0x3ce08d15	0.027411023
159	0xbdf003af	-0.117194526
160	0xbda3aecc	-0.07992324
161	0x3e9656e1	0.29363158
162	0x3cf33bae	0.029691543
163	0x3c02d131	0.007984445
164	0x3d4e19e6	0.050317667
165	0x3dfe83ca	0.124274805
166	0xbd9e6ed4	-0.077359825
167	0x3dcaab66	0.09895973
168	0x3e3b5847	0.18295394
169	0x3e54cce5	0.20781286
170	0x3d607376	0.054797612
171	0x3c44ab5f	0.012003749
172	0x3b451a28	0.0030075405
173	0x3ddf05d5	0.10889784
174	0x3de84592	0.113413945
175	0x3cd518e1	0.02601284
176	0xbe3998c6	-0.18124685
177	0xbc34b328	-0.011029042
178	0xbd0f0f76	-0.034926854
179	0x3d37f791	0.044913832
180	0x3da8e81d	0.08247397
181	0xbdb9954a	-0.09061678
182	0x3e49114a	0.19635502
183	0x3e5aca54	0.21366245
184	0x3aea123f	0.0017858221
185	0xbc2a6c70	-0.01040183
186	0xbd8a1235	-0.06741754
187	0x3db5963d	0.08866546
188	0xbd9394f8	-0.07206148
189	0x3e20ce8c	0.15703791
190	0xbe6c86ad	-0.2309825
191	0xbdcfa085	-0.101380385
192	0xbce4e2c3	-0.02794016
193	0x3d3b16f3	0.045676183
194	0xbdaaa911	-0.08333028
195	0x3e2bd472	0.1678026
196	0xbe3ce23f	-0.18445681
197	0x3cab26dc	0.020892553
198	0x3e13a7fb	0.14419548
199	0x3e788775	0.24270423
200	0xbd1ef07e	-0.03880357
201	0xbd8941b8	-0.06701988
202	0x3db0b03b	0.08627363
203	0x3d7ba7f5	0.061439473
204	0x3d743915	0.05962475
205	0x3e52a543	0.20570855
206	0xbe1669f8	-0.14688861
207	0xbc82c9d4	-0.01596538
208	0x3e299593	0.16560964
209	0x3c7a61f9	0.015282148
210	0x3e14aefc	0.14519876
211	0x3e867c4d	0.2626671
212	0xbde2422c	-0.110477775
213	0xbcc0f973	-0.023556447
214	0xbe23384e	-0.15939447
215	0xbe3652e6	-0.1780506
216	0x3e1d50f5	0.15362914
217	0xbcec2a36	-0.028828721
218	0x3d77c160	0.06048715
219	0x3e829236	0.25502175
220	0xbde42a0b	-0.111408316
221	0x3e38626a	0.18006292
222	0x3dfd2ba3	0.12361839
223	0xbe5cc27e	-0.21558568
224	0x3e0e10be	0.13873574
225	0x3d5da914	0.054116324
226	0xbe1dff74	-0.15429479
227	0xbd270a40	-0.04078126
228	0x3e27517f	0.16339682
229	0x3cd3c403	0.025850302
230	0x3e035a23	0.12827353
231	0xbd43a649	-0.047766004
232	0x3d8675cb	0.06565436
233	0xbe0d8b8d	-0.13822766
234	0x3d5d300a	0.05400089
235	0xbdfeab4d	-0.12435017
236	0x3dcc139a	0.09964676
237	0x3dd27bb6	0.10277502
238	0x3dd2469e	0.102673754
239	0x3e36df0e	0.17858526
240	0x3dd5f839	0.10447735
241	0x3e13862e	0.14406654
242	0x3e053295	0.13007577
243	0x3d116686	0.035498165
244	0x3e9993c7	0.29995558
245	0xbe13ff83	-0.14452939
246	0xbd2cb8e0	-0.042168498
247	0xbe578006	-0.21044931
248	0xbdeeadf2	-0.11654271
249	0x3d4b9737	0.049704757
250	0x3defff0d	0.11718569
251	0xbe68fc96	-0.22752604
252	0xbe4824d8	-0.19545305
253	0xbc24fc6f	-0.0100699505
254	0x3e234932	0.1594589
255	0x3dd3a8ea	0.10334952

fc2.bias f4 [16]
0	0x3e546551	0.20741774
1	0x3aba945d	0.001423489
2	0xbd45ec50	-0.04832107
3	0x3e7e4613	0.24831419
4	0xbdf77c29	-0.120842285
5	0x3dc4769a	0.09592934
6	0x3e527778	0.20553386
7	0x3ca2b08e	0.019859578
8	0x3e7c7b2b	0.2465636
9	0xbc2138bc	-0.009840187
10	0xbd416f07	-0.047225025
11	0x3e4f00b8	0.20215118
12	0xbd4a4f40	-0.049391985
13	0x3e172d4b	0.14763372
14	0xbd857051	-0.06515563
15	0x3adb4dcd	0.001673156

fc3.weight f4 [10, 16]
0	0x3e7ac31b	0.2448849
1	0xbd13c723	-0.036078583
2	0xbe8aa9dc	-0.27082717
3	0x3de54dcd	0.1119648
4	0x3c10f48d	0.008847368
5	0xbe4d05f5	-0.20021804
6	0xbe5e8d66	-0.21733627
7	0x3c552cf0	0.013011202
8	0x3e22e703	0.15908436
9	0x3de1dd0b	0.11028489
10	0x3c1bd675	0.00951158
11	0xbd11e65b	-0.035620075
12	0xbd91c4b7	-0.071175985
13	0x3e0d17d0	0.13778615
14	0x3e6ef764	0.2333656
15	0xbe79d1b5	-0.24396403
16	0xbe49a417	-0.19691502
17	0x3ed52331	0.4162841
18	0xbe193529	-0.14961685
19	0x3dff59f1	0.12468327
20	0xbe4b75d6	-0.1986917
21	0x3e1c8d59	0.15288295
22	0xbdb9d696	-0.09074132
23	0x3e23f8b4	0.16012841
24	0x3e83a751	0.2571359
25	0xbe4ba588	-0.19887364
26	0xbdd90a87	-0.10597711
27	0x3e8aa859	0.27081564
28	0xbec800e8	-0.3906319
29	0xbea60662	-0.32426745
30	0xbe5061c1	-0.2034979
31	0x3e879c82	0.26486593
32	0xbdb42f45	-0.087980784
33	0xbd269574	-0.040669873
34	0xbe72b0ed	-0.23700304
35	0x3bf29a58	0.007403653
36	0xbe6c8d97	-0.23100887
37	0xbc9ac3a3	-0.018892115
38	0xbe72c149	-0.23706545
39	0x3e11b6da	0.14229909
40	0x3e993773	0.29925117
41	0xbc0c560c	-0.008565437
42	0xbe3e9df9	-0.1861495
43	0xbe54926b	-0.20758979
44	0x3c0f3ec2	0.00874299
45	0x3e53eba2	0.20695356
46	0x3e28f461	0.16499473
47	0x3e702e9d	0.23455282
48	0xbe74c278	-0.23902309
49	0xbe4119c6	-0.18857488
50	0xbdf24ad0	-0.118306756
51	0xbced5a39	-0.028973686
52	0xbea19a5d	-0.31563082
53	0xbe85d31b	-0.26137623
54	0x3ead3e11	0.33836415
55	0xbd8566b4	-0.0651373
56	0x3e6d7217	0.23188053
57	0xbbcf3f5f	-0.006324693
58	0x3e5423bb	0.20716755
59	0x3defc617	0.117077045
60	0x3e4e9e3a	0.20177546
61	0xbd1cda6a	-0.038294233
62	0x3e16be1a	0.14720955
63	0x3e072064	0.1319595
64	0xbcb53299	-0.022118853
65	0x3eb47d85	0.35252014
66	0xbd6f02bb	-0.058352213
67	0xbeb22703	-0.3479539
68	0x3d50522f	0.050859626
69	0x3e0d75c8	0.13814461
70	0x3b8d2443	0.0043073012
71	0xbdf9f499	-0.122048564
72	0xbeb11a15	-0.34590212
73	0xbd88a464	-0.0667198
74	0x3dd123e4	0.10211924
75	0x3e830a57	0.25593826
76	0xbe76228c	-0.24036616
77	0x3e6fc4b1	0.23414876
78	0x3d03a918	0.032143682
79	0x3e52865b	0.20559065
80	0x3dd8741e	0.105690226
81	0xbe2d26f9	-0.16909398
82	0x3eadcf9b	0.33947453
83	0x3d784c72	0.06061978
84	0xbe70f7ae	-0.23531982
85	0xbd814842	-0.0631261
86	0x3d0a2b15	0.033732492
87	0x3dc8940a	0.09793861
88	0x3e26b380	0.16279411
89	0xbe820bf6	-0.2539975
90	0xbe77d336	-0.24201664
91	0x3d5b902e	0.053604297
92	0xbe8de101	-0.27710727
93	0x3d40d8f2	0.047081895
94	0x3d1df278	0.038561314
95	0xbdd697dc	-0.104781836
96	0xbde198ef	-0.11015498
97	0xbe82c672	-0.25542027
98	0x3d9b1e6e	0.075741634
99	0x3ea5f772	0.32415348
100	0x3e0d7da1	0.13817455
101	0x3ded6620	0.115917444
102	0xbec892ab	-0.391744
103	0xbea998df	-0.33124444
104	0xbd77205a	-0.060333587
105	0xbddc0e71	-0.10744942
106	0x3d888617	0.066662006
107	0x3e207114	0.15668136
108	0x3c99450e	0.018709686
109	0xbe898909	-0.26862362
110	0x3dbe58db	0.092942916
111	0x3cfc3072	0.03078482
112	0xbe685905	-0.22690208
113	0x3d42b78c	0.047538325
114	0xbe3e35d4	-0.18575221
115	0x3e801e2a	0.25023013
116	0x3d2a6aa4	0.041605607
117	0x3d268541	0.040654425
118	0x3dd1d220	0.10245156
119	0xbdba9894	-0.09111133
120	0x3da9efec	0.082977146
121	0xbe097141	-0.13422109
122	0x3e130766	0.14358291
123	0x3dfdef7c	0.12399194
124	0xbc9b2b9b	-0.018941691
125	0x3ea3d363	0.31997213
126	0xbedcdc40	-0.43136787
127	0x3e1829d5	0.14859708
128	0x3e9b1ad9	0.3029392
129	0xbe9c2313	-0.3049551
130	0xbd98205e	-0.074280486
131	0x3cd97a5e	0.026547607
132	0x3d11ed75	0.035626847
133	0x3e82f15a	0.25574762
134	0x3e4c2573	0.1993616
135	0xbe48d0c1	-0.19610883
136	0x3d7dca59	0.061960552
137	0x3e500244	0.20313364
138	0x3dc1e1ad	0.09466872
139	0xbe039072	-0.1284807
140	0x3e0869f3	0.13321666
141	0xbda90549	-0.08252961
142	0xbe1f0b3b	-0.15531628
143	0x3e499702	0.19686511
144	0xbe3c1255	-0.18366368
145	0x3e40ed0f	0.1884043
146	0x3dcf8e23	0.10134532
147	0xbe9d4ee8	-0.30724263
148	0x3e7e10d9	0.24811114
149	0x3e6a5fbf	0.22888087
150	0x3e43e245	0.19129284
151	0xbd88afb3	-0.06674137
152	0x3e02d8f2	0.1277807
153	0xbe4914e6	-0.19636878
154	0x3e1f7209	0.15570845
155	0x3e17d770	0.14828277
156	0xbda34cbf	-0.079736225
157	0x3c85513b	0.016274085
158	0xbd4dad95	-0.05021437
159	0xbe2af1a5	-0.16693743

fc3.bias f4 [10]
0	0xbe120f6e	-0.14263698
1	0x3e93a6c2	0.28838164
2	0x3dec2e62	0.11532284
3	0xbde7b9f1	-0.113147624
4	0x3e2d4456	0.169206
5	0xbd7e078e	-0.062018923
6	0x3e0ed34a	0.13947788
7	0x3dfe366c	0.12412724
8	0xbe7ae1ad	-0.24500151
9	0x3dd3d13f	0.10342645
